…
fixing parameter: conv_first.conv.lin_key.weight
fixing parameter: conv_first.conv.lin_key.bias
fixing parameter: conv_first.conv.lin_query.weight
fixing parameter: conv_first.conv.lin_query.bias
fixing parameter: conv_first.conv.lin_value.weight
fixing parameter: conv_first.conv.lin_value.bias
fixing parameter: conv_first.conv.lin_edge.weight
fixing parameter: conv_first.conv.lin_skip.weight
fixing parameter: conv_first.conv.lin_skip.bias
fixing parameter: conv_first.fc.weight
fixing parameter: conv_first.fc.bias
Net(
  (node_embedding): NodeEmbedding(
    (residual): Identity()
    (numeric_embed): Embedding(500, 32)
    (i_embed): Embedding(83, 32)
    (fc): Linear(in_features=64, out_features=64, bias=True)
  )
  (edge_embedding): EdgeEmbedding(
    (p_embed): Embedding(328, 32)
    (f_embed): Embedding(7, 32)
    (fc): Linear(in_features=64, out_features=64, bias=True)
  )
  (conv_first): MultiheadTransformer(
    (bn): BatchNorm(64)
    (residual): Identity()
    (conv): TransformerConv(64, 64, heads=4)
    (fc): Linear(in_features=256, out_features=64, bias=True)
  )
  (conv_layers): ModuleList(
    (0): MultiheadTransformer(
      (bn): BatchNorm(64)
      (residual): Identity()
      (conv): TransformerConv(64, 64, heads=4)
      (fc): Linear(in_features=256, out_features=64, bias=True)
    )
    (1): MultiheadTransformer(
      (bn): BatchNorm(64)
      (residual): Identity()
      (conv): TransformerConv(64, 64, heads=4)
      (fc): Linear(in_features=256, out_features=64, bias=True)
    )
    (2): MultiheadTransformer(
      (bn): BatchNorm(64)
      (residual): Identity()
      (conv): TransformerConv(64, 64, heads=4)
      (fc): Linear(in_features=256, out_features=64, bias=True)
    )
    (3): MultiheadTransformer(
      (bn): BatchNorm(64)
      (residual): Identity()
      (conv): TransformerConv(64, 64, heads=4)
      (fc): Linear(in_features=256, out_features=64, bias=True)
    )
    (4): MultiheadTransformer(
      (bn): BatchNorm(64)
      (residual): Identity()
      (conv): TransformerConv(64, 64, heads=4)
      (fc): Linear(in_features=256, out_features=64, bias=True)
    )
    (5): MultiheadTransformer(
      (bn): BatchNorm(64)
      (residual): Identity()
      (conv): TransformerConv(64, 64, heads=4)
      (fc): Linear(in_features=256, out_features=64, bias=True)
    )
  )
  (jkn): JumpingKnowledge(max)
  (loss_function): MSELoss()
  (gate_nn_P): Sequential(
    (0): Linear(in_features=64, out_features=64, bias=True)
    (1): ReLU()
    (2): Linear(in_features=64, out_features=1, bias=True)
  )
  (gate_nn_pseudo_B): Sequential(
    (0): Linear(in_features=64, out_features=64, bias=True)
    (1): ReLU()
    (2): Linear(in_features=64, out_features=1, bias=True)
  )
  (MLPs): MultiAttension_MLP_multi_objective(
    (gate_nn): Sequential(
      (0): Linear(in_features=64, out_features=64, bias=True)
      (1): ReLU()
      (2): Linear(in_features=64, out_features=1, bias=True)
    )
    (activation): ELU(alpha=1.0)
    (MLP_heads): ModuleDict(
      (perf): ModuleList(
        (0): MultiMyGlobalAttention(
          (glob_P): MyGlobalAttention(gate_nn=Sequential(
            (0): Linear(in_features=64, out_features=64, bias=True)
            (1): ReLU()
            (2): Linear(in_features=64, out_features=1, bias=True)
          ), nn=None)
          (glob_pseudo_B): MyGlobalAttention(gate_nn=Sequential(
            (0): Linear(in_features=64, out_features=64, bias=True)
            (1): ReLU()
            (2): Linear(in_features=64, out_features=1, bias=True)
          ), nn=None)
        )
        (1): Linear(in_features=128, out_features=32, bias=True)
        (2): Linear(in_features=32, out_features=16, bias=True)
        (3): Linear(in_features=16, out_features=8, bias=True)
        (4): Linear(in_features=8, out_features=1, bias=True)
      )
      (util-LUT): ModuleList(
        (0): MultiMyGlobalAttention(
          (glob_P): MyGlobalAttention(gate_nn=Sequential(
            (0): Linear(in_features=64, out_features=64, bias=True)
            (1): ReLU()
            (2): Linear(in_features=64, out_features=1, bias=True)
          ), nn=None)
          (glob_pseudo_B): MyGlobalAttention(gate_nn=Sequential(
            (0): Linear(in_features=64, out_features=64, bias=True)
            (1): ReLU()
            (2): Linear(in_features=64, out_features=1, bias=True)
          ), nn=None)
        )
        (1): Linear(in_features=128, out_features=32, bias=True)
        (2): Linear(in_features=32, out_features=16, bias=True)
        (3): Linear(in_features=16, out_features=8, bias=True)
        (4): Linear(in_features=8, out_features=1, bias=True)
      )
      (util-FF): ModuleList(
        (0): MultiMyGlobalAttention(
          (glob_P): MyGlobalAttention(gate_nn=Sequential(
            (0): Linear(in_features=64, out_features=64, bias=True)
            (1): ReLU()
            (2): Linear(in_features=64, out_features=1, bias=True)
          ), nn=None)
          (glob_pseudo_B): MyGlobalAttention(gate_nn=Sequential(
            (0): Linear(in_features=64, out_features=64, bias=True)
            (1): ReLU()
            (2): Linear(in_features=64, out_features=1, bias=True)
          ), nn=None)
        )
        (1): Linear(in_features=128, out_features=32, bias=True)
        (2): Linear(in_features=32, out_features=16, bias=True)
        (3): Linear(in_features=16, out_features=8, bias=True)
        (4): Linear(in_features=8, out_features=1, bias=True)
      )
      (util-DSP): ModuleList(
        (0): MultiMyGlobalAttention(
          (glob_P): MyGlobalAttention(gate_nn=Sequential(
            (0): Linear(in_features=64, out_features=64, bias=True)
            (1): ReLU()
            (2): Linear(in_features=64, out_features=1, bias=True)
          ), nn=None)
          (glob_pseudo_B): MyGlobalAttention(gate_nn=Sequential(
            (0): Linear(in_features=64, out_features=64, bias=True)
            (1): ReLU()
            (2): Linear(in_features=64, out_features=1, bias=True)
          ), nn=None)
        )
        (1): Linear(in_features=128, out_features=32, bias=True)
        (2): Linear(in_features=32, out_features=16, bias=True)
        (3): Linear(in_features=16, out_features=8, bias=True)
        (4): Linear(in_features=8, out_features=1, bias=True)
      )
      (util-BRAM): ModuleList(
        (0): MultiMyGlobalAttention(
          (glob_P): MyGlobalAttention(gate_nn=Sequential(
            (0): Linear(in_features=64, out_features=64, bias=True)
            (1): ReLU()
            (2): Linear(in_features=64, out_features=1, bias=True)
          ), nn=None)
          (glob_pseudo_B): MyGlobalAttention(gate_nn=Sequential(
            (0): Linear(in_features=64, out_features=64, bias=True)
            (1): ReLU()
            (2): Linear(in_features=64, out_features=1, bias=True)
          ), nn=None)
        )
        (1): Linear(in_features=128, out_features=32, bias=True)
        (2): Linear(in_features=32, out_features=16, bias=True)
        (3): Linear(in_features=16, out_features=8, bias=True)
        (4): Linear(in_features=8, out_features=1, bias=True)
      )
    )
  )
  (MLPs_per_pragma): ModuleDict(
    (tile): MLP(
      (activation): ELU(alpha=1.0)
      (layers): ModuleList(
        (0): Linear(in_features=65, out_features=32, bias=True)
        (1): Linear(in_features=32, out_features=64, bias=True)
      )
    )
    (pipeline): MLP(
      (activation): ELU(alpha=1.0)
      (layers): ModuleList(
        (0): Linear(in_features=65, out_features=32, bias=True)
        (1): Linear(in_features=32, out_features=64, bias=True)
      )
    )
    (parallel): MLP(
      (activation): ELU(alpha=1.0)
      (layers): ModuleList(
        (0): Linear(in_features=66, out_features=33, bias=True)
        (1): Linear(in_features=33, out_features=64, bias=True)
      )
    )
    (merge): MLP(
      (activation): ELU(alpha=1.0)
      (layers): ModuleList(
        (0): Linear(in_features=192, out_features=96, bias=True)
        (1): Linear(in_features=96, out_features=64, bias=True)
      )
    )
  )
)

Test batch ID (resample): -1 - Epoch 0 train
  0%|          | 0/10 [00:00<?, ?it/s]/home/wqlou/anaconda3/envs/harp/lib/python3.6/site-packages/torch/optim/lr_scheduler.py:154: UserWarning: The epoch parameter in `scheduler.step()` was not necessary and is being deprecated where possible. Please use `scheduler.step()` to step the scheduler. During the deprecation, if epoch is different from None, the closed form is used instead of the new chainable form, where available. Please open an issue if you are unable to replicate your use case: https://github.com/pytorch/pytorch/issues/new/choose.
…
